…
To enable them in other operations, rebuild TensorFlow with the appropriate compiler flags.
Found 1316 files belonging to 37 classes.
['佛手瓜', '哈密瓜', '木瓜', '李子', '枇杷', '柠檬', '桂圆', '梨', '榴莲', '橘子', '毛丹', '牛油果', '猕猴桃', '甘蔗', '番石榴-百', '白兰瓜', '白心火龙果', '百香果', '粑粑柑', '红心火龙果', '红苹果', '胡萝卜', '芒果', '芦柑', '草莓', '荔枝', '莲雾', '菠萝', '菠萝莓', '菠萝蜜', '葡萄-白', '蓝莓', '蟠桃', '车厘子', '金桔', '黄桃', '黑莓']
Model: "sequential"
_________________________________________________________________
 Layer (type)                Output Shape              Param #
=================================================================
 rescaling (Rescaling)       (None, 224, 224, 3)       0

 conv2d (Conv2D)             (None, 222, 222, 32)      896

 max_pooling2d (MaxPooling2D  (None, 111, 111, 32)     0
 )

 conv2d_1 (Conv2D)           (None, 109, 109, 64)      18496

 max_pooling2d_1 (MaxPooling  (None, 54, 54, 64)       0
 2D)

 flatten (Flatten)           (None, 186624)            0

 dense (Dense)               (None, 128)               23888000

 dense_1 (Dense)             (None, 37)                4773

=================================================================
Total params: 23,912,165
Trainable params: 23,912,165
Non-trainable params: 0
_________________________________________________________________
Epoch 1/10
244/334 [====================>.........] - ETA: 18s - loss: 3.4656 - accuracy: 0.06222024-05-14 23:30:06.231079: W tensorflow/core/lib/png/png_io.cc:88] PNG warning: iCCP: known incorrect sRGB profile
…
